model/model.pth (torch, 16787 bytes, 4 tensors)

linear1.weight f4 [256, 11]
00000000: 0bc9 05bd 7b5e 3d3e 845d 9f3d a71e 863e
00000010: 9593 a9bd 0031 50be 5e8d e63d bb22 76bd
00000020: c61b 2bbe de7b 4b3e 75d6 f7bd e034 4abc
00000030: 5f93 24be 078d 853e da7f 58bd aa88 ecbc
00000040: c728 0c3d 15b5 dc3d 9ce8 db3d bcaf f63d
00000050: 1a3c 2bbe 8c43 b03d de3e 853e b159 183e
00000060: 9dd6 133e 46dc 153e d9c7 b0bd 0f59 17be
00000070: 266e dbbd 6d70 8e3d f51a 86be 5c5b 603c
00000080: 6dd0 443e 4e59 b3bc 04ff f13c a440 49be
00000090: a4fa 9bbd 38bf 6bbe 80a6 7bbe f4f8 59bc
000000a0: c9b1 0fbe b7a4 863d b15e 3c3e 9ac5 a3bd
000000b0: dde0 8fbe 4d67 46be d740 7b3e 462e 1e3d
000000c0: df8d c7bc 5daf 543d b77f abbd ac2c 0cbd
000000d0: 1688 153d 69fc e9bd 9a0a 8abe 3f72 6c3e
000000e0: 492b 583e 496d 0d3e ff2f d1bd f029 15be
000000f0: a63d ee3d 7101 93be 38b1 d2bc 12cd 82bc
00000100: cb6b 97bd 59d8 ac3d 928d 28be fd07 563e
00000110: c49a 73bd 8950 5f3e 2a9a 3e3e c347 94be
00000120: 56e6 b4bd c494 ccbd c201 4abe 3a8a 5dbe
00000130: cdef 13bd e614 e4bd 4704 913e ee2f 27be
00000140: 1840 983d e0c5 a7bd d898 02be e88c 07bd
00000150: e663 733e 4911 1abe eba0 80be 508d 3dbe
00000160: e3dd ee3c 918b 5e3e d819 8fbe 9632 3cbe
00000170: d6a6 8d3c 1a7f efbc 1523 a9bc 7ab4 123e
00000180: d3ca 5cbe ecc4 9b3e 2acd 34be 598a 54be
00000190: f1d7 91be 5bc6 1dba 0bb1 7fbe 5a19 663e
000001a0: c2b8 5abe 106a aebd bb76 4e3d 9995 ddbd
000001b0: 5b80 693e d892 85bd 31df e33d 2c98 313e
000001c0: 8597 be3d a857 6c3e 0f25 143e 9d75 163e
000001d0: 215c a1be f77e 693e f541 c73c 5aec 2cbe
000001e0: 6bd3 603e f152 e23d 3b62 f43c ccc8 8ebd
000001f0: b59c dc3c 3551 0a3c 5a03 17be e682 943e
00000200: 3e77 103e 75c4 9a3e 6c8c 77bd 7b1e 003d
00000210: 5416 a93d aa70 9b3e fb8d 643e 89ea 35be
00000220: f404 08be 2360 1f3e 5a73 ab3c b37d 81be
00000230: 89ee e83d 092e 53be a419 80be 11f9 1cbe
00000240: 9f41 7f3e edfa 91be e9b3 283e c685 81be
00000250: 2e6f c0bd 3e71 873e eec9 333d 539f 09be
00000260: ae9e 5ebd 5577 88be 4a93 f8bd ceeb 90be
00000270: 1b6e 2d3e 2b3d 19be 12d8 4b3e 2f05 7cbe
00000280: 7f6e e0bd 7c2f 56be 6df0 353e 07b3 52be
00000290: feac 86be 8e1e 37be c6c7 7cbd 23d4 11be
000002a0: d26d 21be 0366 603e 8a3c 223e bc56 99be
000002b0: 06af a63d 656b 8cbd bc2e 943c b959 5bbd
000002c0: 9867 4b3e bdba f2bd ee36 5dbe eee4 523d
000002d0: d261 18be ef48 0e3e 2574 3d3e f436 b8bd
000002e0: 94b0 463e abc7 75be ff77 4b3e b630 3d3d
000002f0: 08f9 97be 7774 5abe 5700 03bd 4f36 923e
00000300: 8529 953e 06d5 e1bd b47f 50be 8263 3fbe
00000310: 283b 72be be4d 633a b5a3 913e 5bc1 1fbd
00000320: 81d3 843e 8c4e 61be 1df0 fa3d 88a8 963e
00000330: 506b 933d a01c 8c3e 0f0a 6c3e 28ab 22be
00000340: d08b 2ebb 592c ef3d 47ed 66be 3f9e 353d
00000350: 23a1 b93d aea0 37be 7324 14bc f7ec 9c3d
00000360: 26ce 9bbe 0fab 293e 4d61 953e 7f3b 96be
00000370: a256 413e 169a 433e e9c7 9c3d e0c3 86be
00000380: 5313 583d 83ca fcbb bded 863d 8ebb 763d
00000390: 7ec3 49be 665c 85be 915c 833e 5401 09bd
000003a0: 3d5a 783e 9f72 b3bc e384 093d b3a8 a5bd
000003b0: bcce 10be 023a 8abd 8ca6 c6bd 3c94 16be
000003c0: c52e 2b3e 6a02 83be bc1b 6e3e 1db8 a63e
000003d0: a8ee a1bd d03b 5f3d 811f 12bd 4a66 a03d
000003e0: 6e07 a33e fb0c 91bd 3ef5 0e3d 01be 873e
000003f0: a773 e83d 03b4 743e da7e 603e 6f6e 84be
-0.032662433 0.18493073 0.077815086 0.2619526 -0.08280102 -0.20331192 0.112574324 -0.060091715
-0.16709813 0.1987147 -0.12101451 -0.012341708 -0.16071843 0.26084158 -0.052856304 -0.02887376
0.034218576 0.10776726 0.10737726 0.120452374 -0.16722146 0.086066335 0.26024526 0.14877965
0.14437337 0.14634809 -0.08631868 -0.14780067 -0.107143685 0.06955037 -0.26192442 0.013693657
0.19220133 -0.02189317 0.029540546 -0.19653565 -0.07616165 -0.23022163 -0.24575233 -0.013303984
-0.14032663 0.065743856 0.18395497 -0.07996674 -0.28101245 -0.19375344 0.24536453 0.03861835
-0.024359642 0.051925052 -0.08373969 -0.03422229 0.036506735 -0.114250965 -0.26961213 0.23090456
0.21110262 0.1381122 -0.10214233 -0.14566779 0.11632852 -0.28712037 -0.02571927 -0.015966926
-0.07393607 0.084397025 -0.16460255 0.20901485 -0.059473768 0.21808065 0.18613496 -0.28961
-0.088329956 -0.09989312 -0.19727233 -0.2163476 -0.036117364 -0.111367986 0.28323576 -0.16326877
0.074341 -0.081920385 -0.12753618 -0.033093363 0.23768577 -0.15045656 -0.2512277 -0.18510938
0.029158538 0.21732928 -0.27949405 -0.18378672 0.017291468 -0.029235411 -0.020646611 0.14326659
-0.21561746 0.30423677 -0.17656389 -0.207559 -0.28485063 -0.0006018632 -0.2496988 0.22470608
-0.21359542 -0.085163236 0.0504062 -0.10819549 0.2280287 -0.06522149 0.11126555 0.17343205
0.09306244 0.23080313 0.14467262 0.14693303 -0.315156 0.2280234 0.024323443 -0.16887036
0.2195565 0.11050976 0.029831996 -0.06971893 0.026930192 0.008442213 -0.14747372 0.29006118
0.14107987 0.3022801 -0.06043665 0.03127907 0.08256212 0.30359393 0.22319786 -0.1776525
-0.1328314 0.15564017 0.020929027 -0.25291213 0.11373622 -0.2062303 -0.25019562 -0.15329386
0.24927376 -0.28511754 0.1647488 -0.25297374 -0.09396206 0.26453584 0.043893747 -0.13439684
-0.054350547 -0.26653543 -0.12137468 -0.28304905 0.16936533 -0.1496474 0.19906643 -0.24611352
-0.109585755 -0.20916551 0.17767496 -0.20576106 -0.26303858 -0.1788275 -0.061713956 -0.1424108
-0.1576455 0.21913914 0.15843406 -0.29948986 0.08138852 -0.068564214 0.018088691 -0.053552363
0.19863737 -0.11852024 -0.21602985 0.051487856 -0.14881065 0.1389501 0.18501337 -0.089948565
0.19403297 -0.24001949 0.19869994 0.046189032 -0.29682183 -0.2133349 -0.031982746 0.2855706
0.2913324 -0.11026959 -0.20361215 -0.18690303 -0.23655379 0.0008670947 0.2844521 -0.039002758
0.25942615 -0.2200262 0.12252829 0.29425454 0.071982026 0.2736559 0.23050712 -0.15885603
-0.0026633628 0.116783805 -0.22551452 0.04434037 0.090639375 -0.17932388 -0.009041893 0.07662385
-0.30430716 0.1656916 0.29175797 -0.29342267 0.18880704 0.19101748 0.07655317 -0.26321316
0.052752804 -0.007714571 0.06588314 0.06023746 -0.1970348 -0.26047057 0.2565656 -0.033448532
0.24253173 -0.021905242 0.033573996 -0.080888174 -0.14141363 -0.06749345 -0.09699735 -0.14704984
0.1671706 -0.2558778 0.23252767 0.32562342 -0.07906848 0.0545004 -0.035674576 0.0783201
0.31841606 -0.07082554 0.03490185 0.2651215 0.11350184 0.23896794 0.2192339 -0.25865504

linear1.bias f4 [256]
00000000: 9518 943d 7d5b 83be 9ec0 643e 47f5 823e
00000010: 1267 913e 6c72 7a3e 9dae 90be 9c8a afbd
00000020: 7891 243e 38b2 a33d 1f3b 263d b5c0 5bbe
00000030: 8d00 26be 638c 1e3d cc66 493e 39cb 743e
00000040: 75a7 7dbe 3b87 523e a658 833e 9b95 e8bd
00000050: 559e 20be 2572 313d e855 24be 7adf 993e
00000060: 9b39 7dbe dfa5 2c3d 1d5b 84be 5624 93be
00000070: 07c4 90be 7718 3bbe ec66 3bbe 8b57 33be
00000080: fe1b 923e ff09 31be 2c13 22bd ba5a dcbd
00000090: 8f21 0b3e 6bac 35bd 78ca 66be ee44 28be
000000a0: c43d 38be a46b 6b3d 589f d3bd aefb 45be
000000b0: 4565 483e cfaa 4a3d 924e f8b9 352b 18be
000000c0: 1032 60be 28c6 84bd 1690 4ebe 87a0 2b3e
000000d0: ed42 3a3d 2fe3 1d3e 47ba 22be 85c2 3dbe
000000e0: 9425 90bd 51e9 2c3e 8039 64be 6ba5 8a3e
000000f0: a122 84bd 8b3c 38be 1f8f 8fbe 29fd 18be
00000100: e472 81be d78a 03bd 6e1e 8cbe 1b29 34be
00000110: efb5 043e ce40 09be 0392 fd3c 1215 7c3e
00000120: deda 823e 15b3 aebd d82b 71be f87f 59be
00000130: ec6e 95bd 667c 193e 1f56 a0bd f5c2 393e
00000140: a30d 803d b138 df3c 684d 4e3e 83c9 8fbe
00000150: 701a 17be 9d8a 993d 09d0 193c 023f 71bd
00000160: 191c d0bc 40db 19be df52 3e3e d031 0cbb
00000170: 9bd9 233e 4203 43be 75d6 e53c 6208 313e
00000180: 2c23 b3bd 1418 a33e f3e8 7d3e 2ae0 46be
00000190: cde3 a2be fa66 14be 18b8 45be 0fd6 02be
000001a0: 30c9 76be fb34 243e 155b 5bbe fb2f 3abe
000001b0: 778a 5fbe 8276 d0bd 5ebb 04be d2bc a8bd
000001c0: fe78 41be 55b3 a13e 5e22 05be 7b0e 6ebe
000001d0: 876e 173e c9d6 2ebe fee8 38be e4ad 873d
000001e0: 4fb6 623d 0007 6bbd 4cfc 443e 1d17 eb3d
000001f0: 4ec9 fbbd 8b78 6d3e 9b4f 49bc 74a5 d6bd
00000200: 0e92 1ebd 6341 813e 6e24 563d e954 85be
00000210: a05b 57bd 4ac7 393e 7b13 75be 8822 5cbc
00000220: 2187 2dbd 48ca 4bbd c542 823e 545b 023e
00000230: aeaf 243d 09de 78bd a2ee e53d 5835 45be
00000240: dfe2 4bbe 7da2 49be 380b 87be 8f98 45be
00000250: 7f6a 803e 4a26 7abe d2ce c13d 43de 9dbd
00000260: 3003 953e bc15 4f3e dd82 033b 3dba f6bd
00000270: cead cabd 56e0 81be 736b e3bd c3b2 8abe
00000280: 91e4 9b3c ffa1 983b 5e8e 85be bee5 873e
00000290: 2581 853e 69cd 02bd 44b7 483d fd2f ae3e
000002a0: 79a2 253e b2bd 7ebe 4391 54be f5e5 693e
000002b0: 8151 183e e731 01be 2b3f 873d 77a5 5fbe
000002c0: 7803 f7bd 6219 1f3e c63e a2be 604b 14bd
000002d0: bd94 49be 5e9b 313e 31b2 953e 3a70 dd3d
000002e0: 0f0b 2bbd 72d9 89be c177 9f3d 6434 f6bd
000002f0: 45b6 413e 44be 84be 020d 853e cce6 a93e
00000300: 1853 2abd 3356 943e 6c57 1f3e fb28 1fbd
00000310: 3bd4 e73c 184f e23d 75fb 9c3e 71f6 ca3d
00000320: 7465 883e 115c 613c 7d94 343e a8ed ab3e
00000330: d773 19bd 4c63 9c3d cfde 4dbd 0809 963e
00000340: da5d 2ebe 6674 983e ebe4 273d 06ae b53d
00000350: 0801 463e 48cb 593c 4424 b0bd d3fa 82bd
00000360: adcf 86be 599f 9dbd 062e 093e a5a8 8e3e
00000370: 32ad 3e3b 2ee0 8e3e 4093 60be 9937 dcbd
00000380: 41e2 0cbe fc8e fa3d f762 98bd ba66 463c
00000390: c709 6d3e 09e2 e93d ef62 853e 50f9 803d
000003a0: f2ec 7f3e 46f8 27bd 12d3 75be dd20 24be
000003b0: 9f4e d5bc e081 81be fc45 2cbe d642 073e
000003c0: 00e4 7dbe 59a0 2f3d a73c cebd bcb8 34be
000003d0: bafe 30be 8544 533d 2fbf 643e dc14 653e
000003e0: 3799 1fbd 4b2d cb3d cc75 c3bd fa00 0d3e
000003f0: e6b5 c13b 8b40 753e e2cb 4b3e 05cd 213d
0.07231251 -0.25655738 0.22339103 0.25577757 0.2839895 0.24457711 -0.2825822 -0.085713595
0.16071117 0.07992977 0.040583726 -0.2146023 -0.16211148 0.038708102 0.1966812 0.23905648
-0.24770911 0.20559399 0.2565357 -0.1135666 -0.15685399 0.043321747 -0.16048396 0.30053312
-0.24729006 0.042150375 -0.25850764 -0.2873866 -0.28274557 -0.18271051 -0.1830098 -0.17513864
0.2853698 -0.1728897 -0.039569065 -0.10759492 0.1358702 -0.044353884 -0.22538173 -0.16432545
-0.17992312 0.0574757 -0.10333127 -0.1933429 0.19569881 0.049479302 -0.00047360786 -0.14860232
-0.21894097 -0.06483108 -0.20172152 0.16760455 0.04547398 0.15418695 -0.15891372 -0.18531235
-0.070384175 0.16885878 -0.2228756 0.2707933 -0.064519174 -0.17991845 -0.2803888 -0.14940323
-0.25282967 -0.03211483 -0.27366966 -0.17593805 0.12960027 -0.13403627 0.030953413 0.24617413
0.25557607 -0.08530251 -0.23551881 -0.21240222 -0.07296547 0.1498886 -0.07828926 0.18140776
0.06252601 0.027248712 0.20146716 -0.2808343 -0.14756179 0.074971415 0.009387978 -0.05889798
-0.025404023 -0.15025043 0.185863 -0.0021391995 0.16000979 -0.19044212 0.028056363 0.17288354
-0.08746943 0.31854308 0.24795894 -0.1942145 -0.31814423 -0.14492407 -0.19308507 -0.1277697
-0.24100184 0.16035835 -0.21421464 -0.18182366 -0.21830164 -0.101788536 -0.129621 -0.082391396
-0.18893811 0.31582132 -0.13001391 -0.23247711 0.14788257 -0.17074122 -0.1805763 0.06624964
0.055349644 -0.057379723 0.19236869 0.11479018 -0.12294255 0.23190515 -0.012287046 -0.104807764
-0.038713507 0.252452 0.052280836 -0.26041344 -0.052577615 0.18142429 -0.23933212 -0.013435967
-0.042365197 -0.049753457 0.25441566 0.12730151 0.040206604 -0.060758624 0.11227156 -0.1925863
-0.19910763 -0.1969089 -0.26375747 -0.19296478 0.2508125 -0.24428669 0.09463276 -0.07708409
0.29103994 0.20223135 0.0020067014 -0.12047241 -0.09896432 -0.25366467 -0.11104479 -0.2708951
0.019029887 0.0046579833 -0.2608518 0.26542467 0.26075092 -0.031934176 0.0490029 0.34020987
0.1617526 -0.2487705 -0.20758538 0.22841628 0.14874841 -0.12616692 0.06603845 -0.21840464
-0.120612085 0.15537027 -0.31688517 -0.036204696 -0.19685645 0.17344424 0.29237512 0.10812421
-0.041758593 -0.2692371 0.07786513 -0.120217115 0.18917187 -0.2592641 0.25986487 0.33183897
-0.04158315 0.28972015 0.15560693 -0.03885744 0.028299442 0.11050242 0.30660596 0.09910286
0.26639903 0.0137548605 0.17634769 0.33579755 -0.03746399 0.07636127 -0.050261315 0.29303765
-0.17027989 0.29776305 0.040989798 0.08871083 0.19336331 0.013293095 -0.08600667 -0.06395497
-0.2633032 -0.07696409 0.13396463 0.2786304 0.0029094932 0.2790541 -0.21931171 -0.10752792
-0.13758184 0.12234303 -0.07440751 0.012109453 0.23148261 0.11420066 0.26052043 0.062975526
0.24992731 -0.041008256 -0.24006298 -0.16028161 -0.026038466 -0.252944 -0.16823572 0.1320909
-0.24794006 0.04287753 -0.10070162 -0.17648596 -0.1728467 0.051579017 0.22338556 0.22371238
-0.038964476 0.09920748 -0.09543952 0.13769904 0.0059115766 0.23950402 0.19901994 0.039502162

linear2.weight f4 [3, 256]
00000000: 4a89 093c 59d3 b5bb b019 b0bd 9c62 7abc
00000010: 366e 49bd 95eb 01bd b2a1 8d3c 2e3c c23c
00000020: e6c9 57bb 0045 f93c c16b ebbc 8cb3 9cbd
00000030: ef88 5abd 7ab7 d2bb 3041 8a3c bf01 34bd
00000040: 382c 4fbd 0b29 12bd 388f bfbd d528 903c
00000050: 5dc3 8ebd ed3c 22bc eb61 92bd 9b35 e6bc
00000060: 3f36 08bd 41ac 8abd 24fa e9bc 5f99 053d
00000070: 5be2 73bb e00c 98ba bbaf 10bc 9da8 09bc
00000080: 9054 0a3c f4d8 37bd 827f 2cbc adb1 c9bd
00000090: e88d 89bd cb11 043d 08d5 71bd 3670 823c
000000a0: 1200 5cbd 02d5 07bd 7743 70bd 304e 4cbd
000000b0: 488c 963c ee69 0b3d 914f c5bb 1e8a c5bc
000000c0: 5eb2 4e3d a188 833c 7efd 93bb fd94 693c
000000d0: 654f 0fbd 8373 35bd 731b 3dba 7bee 93bd
000000e0: 8ba5 683d f5e0 4d3b 5376 b33c 39ac 2bbd
000000f0: 119c 9abd 0f45 8e3d 6684 fd3b fc7c 0abd
00000100: 720d 353d f206 5bbd a9a0 0a3d b01d e73c
00000110: f1b2 d8bd 14b3 6f3c ff48 24bd a9f8 de3b
00000120: c327 8bbd 3578 bc3d 0722 aabd cdc2 34bd
00000130: ea99 c23c e2ed c0bd a9b6 f83c 0b32 9dbd
00000140: 8028 58bd 7ba2 14bd 0eba 863b 302e a4bb
00000150: 693b 993d e119 63bd bf81 b1bc 0698 c4bc
00000160: 89ca ea3c d748 1abd 524f 42bc 5af1 c93c
00000170: 877c c03c e0f6 253b 0315 8bbd 7e97 9dbd
00000180: 6bb9 16bd bf7d 14bd 5b65 193c 30f2 85bc
00000190: e858 f0bc 3c55 adbd d2d0 4dbd 9d54 503d
000001a0: 9cdf 95bd 9f5d c4bd b8f8 2a3c 0ad6 063b
000001b0: f165 65bd ae48 783d ec42 93bc 7471 04bb
000001c0: 701b 3f3c d316 74bc 67a4 123d 0c82 7b3c
000001d0: 78d0 363c 4425 933c ae9c 3b3d ac22 fdbc
000001e0: 0725 2abd f3a6 56bd 218f 803c 64c4 98bd
000001f0: abef 623c 79b9 8fbd 7ec8 72bd 7025 eabb
00000200: 49d1 b3bd 179e 11bc d14c 98bc 1ce2 58bb
00000210: 5a24 efbc 5df5 b8bd 8d37 423d b7b1 db38
00000220: 41e3 fbbc bc25 a7bd 9db8 82bd 815b 043d
00000230: c0a3 80bd 52a5 acbc 5074 64bd 7b51 44bd
00000240: bca0 56bd 585c 863c d4a8 7e3c df76 4dbd
00000250: d98d 24bd 7899 f13c 3b24 8bbd 013d ed3b
00000260: bec9 a9bd c11e 173d 2332 babd 0d79 c7bd
00000270: 0466 96bd 91f1 57bd 2f75 813c b33d a1bd
00000280: b5ff a3bd 2a09 553c 56c6 163c aa82 1b3d
00000290: 65d4 d3bc 877e 71bd 4179 ebbc efb1 aebd
000002a0: 7cd4 99bd 2ca1 88bd 6519 4abd 512b dfbc
000002b0: 04a8 563c 3a43 d5bc 856a 5cbc b414 80bc
000002c0: 5ba1 be3c 434a 91bd 369c d03b d52f c23c
000002d0: 0606 f5bc 9d5a afbd fba6 a33c 3a88 b1bd
000002e0: 2902 e8bb 6961 7bbd fa95 783d 33b3 8fbd
000002f0: c8c6 31bd 062f 553d d84f 3dbd a2ec 73bc
00000300: da54 57bd 5d77 58bd e27d 33bd 1c33 473c
00000310: 19fa 2a3d da8d 7ebd 2789 72bd 065f 9ebd
00000320: 266c 883c 5296 d0ba 9c2c 9ebd 8dd0 b1bd
00000330: d248 bcbb 252f 103b 8125 bfbc 1e7f 43bd
00000340: 2356 463d 3f8b cfbc be11 41bd 1d7d 29bd
00000350: a3ba 90bd 1da4 253b 1200 48bb aea9 d53b
00000360: 1898 6d3c 3959 743c 1e0f a1bd 291d 06bd
00000370: 66ac fcbc 5eaa 8ebd 0afa 47bd a3db 0d3d
00000380: fffe 753c d0f7 8abd 79d0 7bbc 14ae 10bd
00000390: 3569 c2bd 1d7f b63c c44b 17bd 49fe afbc
000003a0: 7a7d a8bc 5242 50bd edd7 883d 0046 a6bd
000003b0: 40a2 3f3c 9f1d 0c3d 7cbb c2bd 8b24 c4ba
000003c0: 1a7c 7c3d 5297 cbbc 8e55 adbd 7379 ed3c
000003d0: b622 3e3d a6f8 5a3c ab97 53bd 9d06 8bbd
000003e0: 3a94 583b 34b6 72bb 527b b5bc 910d 293c
000003f0: 9a1b d6bb 726c 56bd 3648 523c f787 9d3c
0.008394549 -0.0055488762 -0.085986495 -0.015282299 -0.04917737 -0.03171881 0.017289016 0.023710337
-0.0032926737 0.03042841 -0.028737905 -0.07651433 -0.053353246 -0.0064305635 0.016876787 -0.043946978
-0.05057928 -0.035683673 -0.09353489 0.017597595 -0.06970856 -0.009902221 -0.071475826 -0.028101733
-0.033254858 -0.06771136 -0.02856166 0.03261697 -0.0037213776 -0.0011600517 -0.00883096 -0.008402017
0.008443013 -0.044884637 -0.010528447 -0.09848342 -0.067165196 0.03224353 -0.059041053 0.015922647
-0.053711005 -0.033162124 -0.05865809 -0.049879253 0.018377438 0.03403657 -0.006021448 -0.024113711
0.050463073 0.01605636 -0.0045163026 0.014256713 -0.034987826 -0.044299614 -0.0007213868 -0.07223221
0.0567985 0.0031414602 0.021907007 -0.04191229 -0.075492986 0.06946766 0.0077367304 -0.0338106
0.044202276 -0.05347342 0.033844624 0.028212398 -0.10581005 0.014630098 -0.040108677 0.006804545
-0.06794693 0.09202615 -0.083072715 -0.04413109 0.023755033 -0.094203725 0.030360537 -0.076755606
-0.052773 -0.036287766 0.004111535 -0.005010389 0.07482035 -0.055444602 -0.021668313 -0.023998272
0.02866103 -0.03766712 -0.011859732 0.024651218 0.02349688 0.002532415 -0.06791117 -0.076949105
-0.036797922 -0.036252733 0.009362544 -0.016350836 -0.029339269 -0.08463523 -0.050247975 0.050861944
-0.07318041 -0.09588169 0.010435276 0.0020574355 -0.056005422 0.060616188 -0.017976247 -0.0020209225
0.011664256 -0.01489802 0.035801318 0.01535083 0.011158101 0.017962106 0.04580372 -0.030900322
-0.04153922 -0.05240531 0.01569325 -0.074593335 0.013851087 -0.07017798 -0.059273235 -0.007145576
-0.08780152 -0.008887789 -0.018591316 -0.0033093756 -0.029192138 -0.09031174 0.04741626 0.00010475836
-0.030748012 -0.08161494 -0.063828684 0.032313827 -0.06281233 -0.021074925 -0.055774987 -0.04792927
-0.052399382 0.016401455 0.015543181 -0.050162192 -0.04017434 0.029492125 -0.0679402 0.0072399382
-0.082904324 0.036894564 -0.09091594 -0.097398855 -0.07343677 -0.05272061 0.015802948 -0.07873096
-0.080077566 0.013002673 0.00920256 0.037966408 -0.025858114 -0.058958557 -0.028744342 -0.08530032
-0.07511231 -0.06671366 -0.049340624 -0.027242335 0.0131015815 -0.026033033 -0.013453131 -0.015634872
0.0232703 -0.070942424 0.006366278 0.023704449 -0.029910099 -0.08562205 0.019977083 -0.08668561
-0.0070803356 -0.061372194 0.060689904 -0.070166014 -0.043402463 0.0520468 -0.046218723 -0.014887961
-0.052571155 -0.05284821 -0.043821223 0.0121581815 0.041742418 -0.062147 -0.05921283 -0.07732968
0.016653132 -0.001591394 -0.07723352 -0.08682356 -0.0057459855 0.0022000757 -0.023333313 -0.04772865
0.04842199 -0.025334952 -0.04713606 -0.041379083 -0.07066848 0.002527482 -0.003051762 0.0065204715
0.014501594 0.01491385 -0.078642115 -0.032742653 -0.030843925 -0.06966089 -0.04882244 0.03463329
0.015014409 -0.06785548 -0.015369528 -0.035322264 -0.09492723 0.02227741 -0.03693749 -0.021483557
-0.020567644 -0.050844498 0.066818096 -0.0811882 0.011696398 0.034207936 -0.09508416 -0.0014964504
0.06164179 -0.024852429 -0.08463584 0.028988576 0.04641982 0.0133649465 -0.051658314 -0.06788371
0.0033047334 -0.003703487 -0.02215353 0.010318176 -0.006534052 -0.052349515 0.012834599 0.019229872

linear2.bias f4 [3]
00000000: f601 1bbc c62c 283c 876d 3ebc
-0.009460917 0.010264581 -0.011622793
